Projet 3 Deep Hedging Heston/deep_hedger.pth (torch, 12933 bytes, 7 tensors)

net.0.weight f4 [32, 4]
00000000: dff0 d7be 61b7 773e a094 0f3e 524c 2abe
00000010: 42c1 6cbe 9e15 bfbd de7c 42bd a708 15be
00000020: c1ac 933e 4557 38be 103b 353e 7b27 f43e
00000030: 5e85 0dbe a854 c4bd b4e1 bbbe d253 84ba
00000040: 7893 e9bd 9b1a b43e 4d9b 58be 3f5b dfbe
00000050: 8fdc b1be cbbd 893e efd7 913e a779 9d3e
00000060: c866 253c 7dd8 9bbe 9918 cd3e 46d1 abbd
00000070: 924b 0dbf 0adc 96be e5c0 c8be caeb 893e
00000080: bc69 00bf 6a7a e93e da4b 243e 330f ddbd
00000090: 2ffc 6ebc 4aac 7a3e aea8 7fbe 9855 e3be
000000a0: 4f07 d53e 1eaa b2be 69c1 993e cb94 c0bb
000000b0: 0a2a ac3e 9eea a73e 55b2 15bc a03c b23e
000000c0: 9b38 33be 76cc 9bbd a581 983d 3aca a9bd
000000d0: 783d fabd 3b3a 4dbe 65b9 063e e3dd 973e
000000e0: 8696 383e 5be6 b63e b791 e63e 8466 6dbe
000000f0: 3c9d 87bd 6fbb 94bd 60ff 01bf 64dc e1be
00000100: e42c 69bd 6654 d13e d95e 9bbe 33e6 443e
00000110: 2814 33bd d13f db3e e857 0bbd cbe3 b83d
00000120: d9b0 04bf 8c34 833e d07c f8bd da41 e7be
00000130: 59e0 73be 5953 823e e560 c03e c4f5 36be
00000140: 495b d0be 982e d23e 94f0 4abe 8a73 9d3e
00000150: abd7 a93e ec93 ad3c 7bb1 26be 7305 163f
00000160: c419 ebbe 0eef eebd 94c8 cf3e b45d 66be
00000170: 8f80 6ebe 1d9a d73e 775a cd3e b6e1 13bd
00000180: ca94 85be 9cc1 5fbc 1046 7ebd 6427 cbbe
00000190: 8698 1dbd 33d1 3abd 3fb1 01bf 9df7 cb3e
000001a0: 614e e63d 4c5d c03b 7f93 d83d 337a 95be
000001b0: 0c5e b93e 0607 ddbe 9ac0 db3d 74b6 15be
000001c0: 9d3b 633e 0988 95be 05dc 553e 34fd 70bd
000001d0: d5c5 a73e 3b1f a7be 9103 8a3e 25fe 90be
000001e0: 98c0 083e 3d27 c2be 014a b0be a16e be3d
000001f0: fdb8 08bd 8c11 803d 0a6c d3be 5401 843e
-0.42175958 0.24191047 0.1402154 -0.16630676 -0.23120597 -0.09330295 -0.047482364 -0.14554082
0.28842738 -0.1800204 0.17698312 0.4768637 -0.13820407 -0.095864594 -0.36695635 -0.0010095781
-0.114050806 0.35176548 -0.21152993 -0.43624303 -0.34738585 0.26902613 0.28485057 0.30756876
0.010095306 -0.30438605 0.4005783 -0.08389525 -0.55193436 -0.2946475 -0.39209667 0.26937705
-0.5016134 0.45601207 0.1604456 -0.10793915 -0.014586492 0.24479786 -0.2496669 -0.4440124
0.4160714 -0.34895414 0.30030373 -0.0058771125 0.33625823 0.32796186 -0.009136756 0.34811878
-0.17502062 -0.07607357 0.07446603 -0.08290525 -0.122187555 -0.20041744 0.1315666 0.29661474
0.1802617 0.35722622 0.45033047 -0.23183638 -0.06621787 -0.072623126 -0.50780296 -0.44113457
-0.056927577 0.40884703 -0.303458 0.19228439 -0.043720394 0.42822126 -0.03401938 0.09027823
-0.5183235 0.25626028 -0.12133181 -0.45167428 -0.2381605 0.25454214 0.37573925 -0.1786719
-0.40694645 0.41051173 -0.19818336 0.30752212 0.33172354 0.021188699 -0.16278641 0.58602065
-0.45918095 -0.1166669 0.40582716 -0.22496682 -0.23291229 0.42109767 0.40108082 -0.036103927
-0.2609008 -0.013657 -0.062078536 -0.3967849 -0.038475536 -0.045609664 -0.5066108 0.3983735
0.11245418 0.005870497 0.10575008 -0.29194793 0.36204565 -0.4316942 0.10730095 -0.14620382
0.2219071 -0.2920535 0.20884712 -0.058835223 0.3276812 -0.32641014 0.26955846 -0.28318897
0.13354719 -0.3792056 -0.3443146 0.092984445 -0.033379544 0.06253347 -0.41293365 0.25782263

net.0.bias f4 [32]
00000000: c4b0 c33e d146 203f ca7e 93be ff14 f83c
00000010: c8f2 8f3e 7388 49be 0a40 b83e 235a a53c
00000020: 8db2 763e 6787 df3e 2219 b73e 2e9b afbe
00000030: 75ff 973d e61c bc3c aed1 e23e 7918 b13e
00000040: b216 673e cb16 a9be 1669 833d dc89 773d
00000050: da99 e3bc 79c4 433e bbff 2cbe 9645 8bbd
00000060: 9828 cf3e 4d2c f7be 8796 fcbe ca38 933e
00000070: 26c7 88be 2308 4ebe 0aee df3b 1b71 453d
0.382208 0.6260806 -0.2880767 0.03028345 0.28114915 -0.19680957 0.35986358 0.020184582
0.24091549 0.4365799 0.35761362 -0.3429808 0.074217714 0.022962999 0.44300598 0.34588984
0.22567251 -0.33025202 0.06416528 0.060434207 -0.027783323 0.19117917 -0.16894428 -0.06800382
0.40460658 -0.48275986 -0.49333593 0.28754264 -0.26714438 -0.20120291 0.0068337964 0.04820357

net.2.weight f4 [32, 32]
00000000: 4daf 9b3d 2c22 d33e 2116 65bd 0570 b0bd
00000010: 0bd2 e3bd 1769 bfbd 24f2 b4bd 1a63 2dbe
00000020: b740 183d db89 a0bd a3ef 823d 9803 83be
00000030: 7ba5 ac3d 25f4 bf3c bd63 cdbd 03fb b03c
00000040: 4a8e 50be b06d 32be 6315 d83d d585 773d
00000050: c185 9ebb ea51 96bd bc5a 493d c6a9 c93d
00000060: 2160 543c 33d2 2a3e 8e13 eebd 95cd efbd
00000070: 83d3 423c 16b3 4a3e af55 7a3d c6e6 473d
00000080: 1415 e03d a552 b83d 6a67 9f3d e50f c1bd
00000090: 1c60 c9bb 3116 bbbd 1e2b 413d 861e e0bd
000000a0: 1565 4a3d 311e 273e 3b86 373e 7d8a 61be
000000b0: df07 183e c2fa ec3d 8c68 e5bd e837 99bc
000000c0: 65ab 8e3b 1598 70bd e7e8 383e c9b0 b4bb
000000d0: b7c0 613e 3cba 97bd a2ca 673e cd03 b0bc
000000e0: 83dc 333e ba22 d43d d9da 6b3e 5201 963c
000000f0: 8d42 2c3d 3a4f 3b3c 6d42 15bc 92da 9ebd
00000100: 0148 a63b c2e8 813d bc2b e6bd a3e7 4abe
00000110: 3c34 54be 932b dcbd c72e 303b 1809 33be
00000120: c2d2 12be 9f50 463d 7e9a b23d 85a7 49be
00000130: baff dabd a938 423d 2764 1ebe 254b 18bd
00000140: aa06 bb3d f512 97bd a4af 55be 9765 8c3c
00000150: f508 603d 3ca7 0b3e 25ac e03d 302e 4a3d
00000160: b35a f3bc e482 853d 258f 92be a8e9 c03c
00000170: 6cbf ebbd 5531 98bc 0bcf 7bbb a745 2ebe
00000180: ecec ec3d 915e bbbd 2935 f2bd b6e2 dc3c
00000190: d137 cebd fea2 4abe a7e5 4bbd ff49 2e3c
000001a0: 99ed da3d 6d77 8abd e210 cfbd 7d99 57bd
000001b0: 53ac 16be 25a1 653c aec8 14be 7b33 b2bd
000001c0: 349a 4cbc d783 c1bc 3fe0 e7bc 842e b5bc
000001d0: ceb5 b2bd 8c25 e73d 6827 01be cf4b 3dbe
000001e0: a50d eebd 05c8 683d d43a 33be b2e8 e7bd
000001f0: daa0 d13c 8409 26bd e1b3 083e 5468 343d
00000200: 8cbc 553e 9461 d43d a84d 5f3c fa5f 0d3b
00000210: 4d7c babd bfe0 07bd 7a4e 943e 4d65 fb3d
00000220: d656 083c 3245 13be 348d 1abe 1c4d 213d
00000230: 87cd 1b3d 96a6 bd3e 5d78 57bc 039f 5d3d
00000240: d858 19be f346 96be 4bb5 803d ff4a 2b3d
00000250: 14ce a9bd e591 ea3d cc9d a63e d60c 35be
00000260: 6911 e23d 7de0 8abd d0e9 493d a568 51be
00000270: ad72 643d 1ffc e9bd c500 803d f319 e1bd
00000280: 6ff3 223d 31e1 ebbd 9cd0 30be febb e73d
00000290: ffe8 6abe faa2 4abc d787 f0bd da76 fd3b
000002a0: db1a 70be a290 9f3d e688 91bb 03c4 463d
000002b0: d4fd d23d 427a eebc 65c4 9abd 9ecc 0ebd
000002c0: df89 0cbe fa5c c8bd 06bc 4dbe 9117 1ebe
000002d0: ed5e 7fbc ce3f 07bd 3f10 58bd d727 45be
000002e0: 7868 ad3d bb3a 16be cc0c 933d fdc6 d43d
000002f0: 66e9 27be fb74 25be c4e8 5bbe 82b6 8cbc
00000300: e0e3 dc3d 44fc 353e bc9d 97bd bad3 34bd
00000310: b592 9e3c 7ba6 37be d252 15be 2389 4cbd
00000320: 36e7 ccbd d358 22be 7c01 fd3c b5ff bdbd
00000330: 351c c0bd 479f 7c3d 3ee6 e8bd 152a 803e
00000340: 331d bc3b fcb7 f43b a499 24bd 4b1e 94bd
00000350: 0d7e 7e3d 7d1c 293e 48da 5cbe 67cd 933d
00000360: e7e8 e13c c7ab f33d 095b 1cbe ba18 a83d
00000370: d0d6 3bbe c12d ba3d 64fa aebd 11e1 97bd
00000380: 00e1 3dbe c8d3 b3bd 41c7 473d 731f c43c
00000390: d830 50bc c2c3 b5bd afcc d03d 610a 48be
000003a0: 2014 a73d b660 a0bd bf69 933d 53e7 ccbd
000003b0: ec4b ac3d a608 acbd 47a0 a5bd b928 0cbd
000003c0: 1c65 a13c d880 02be 1b42 c4bd 2ab3 9d39
000003d0: c322 e83d 183a e5bd 7af9 33be dac8 0cbe
000003e0: bb78 0dbc 4ad3 3aba 03be 5b3d cc98 8bbd
000003f0: 5a5b 273c a29a 5cbe a44b 8cbd 65fb d23d
0.07601795 0.4123701 -0.055929307 -0.08615116 -0.11124047 -0.09346216 -0.08835247 -0.16932335
0.037171092 -0.07838794 0.06393363 -0.2558868 0.084300004 0.023431847 -0.10028789 0.021604067
-0.20366779 -0.17424655 0.10550954 0.060430367 -0.004837722 -0.073398426 0.049158797 0.09846835
0.012962372 0.16681747 -0.116248235 -0.117091335 0.011891249 0.19794878 0.06111687 0.048804067
0.1094152 0.09000138 0.077833965 -0.0942686 -0.0061454903 -0.09135092 0.04716026 -0.10943322
0.049412806 0.16320111 0.17922299 -0.22025485 0.14846753 0.11571266 -0.11201581 -0.018703416
0.004353928 -0.058738787 0.18057595 -0.0055142385 0.22046171 -0.07408568 0.22635892 -0.021486187
0.17564587 0.10358186 0.23032703 0.018311176 0.042055655 0.011432463 -0.009110075 -0.07756533
0.0050745015 0.06343223 -0.112388104 -0.19814925 -0.20723051 -0.107504986 0.002688335 -0.17483938
-0.1433821 0.04841673 0.08720873 -0.1969281 -0.10693307 0.047417317 -0.15467893 -0.03718104
0.091321304 -0.07376663 -0.20867783 0.017138286 0.054696042 0.13638014 0.10970334 0.049360454
-0.029706335 0.06519106 -0.28624836 0.023548916 -0.1151112 -0.01857821 -0.0038422968 -0.17018758
0.11568627 -0.091488965 -0.11826546 0.026963573 -0.1006924 -0.19788739 -0.04977956 0.010637759
0.106898494 -0.0676106 -0.10110642 -0.052636612 -0.14714174 0.014015471 -0.14529678 -0.08701225
-0.012487937 -0.023622436 -0.028305171 -0.022116907 -0.08726083 0.112864584 -0.12612689 -0.1848595
-0.11623696 0.05683138 -0.1750291 -0.1132368 0.025589395 -0.04053642 0.13349868 0.044044808
0.20872706 0.10370174 0.013629355 0.00215721 -0.0910574 -0.03317332 0.28966123 0.12275181
0.008321485 -0.14381865 -0.15092927 0.039380178 0.038037803 0.37041157 -0.013151255 0.054106724
-0.14975297 -0.29351005 0.06284579 0.04181957 -0.082912594 0.114536084 0.32542264 -0.17680678
0.11038477 -0.06781099 0.049295247 -0.20450075 0.055773426 -0.114250414 0.06250147 -0.109912775
0.039782938 -0.11517561 -0.17267078 0.113151535 -0.22940443 -0.012367958 -0.117446594 0.0077351155
-0.23447745 0.077912584 -0.0044413684 0.048526775 0.1030232 -0.029111031 -0.075569905 -0.034863107
-0.13724469 -0.09783359 -0.20091256 -0.15438677 -0.015586597 -0.033019833 -0.05274987 -0.19253479
0.084671915 -0.14670841 0.07180175 0.103895165 -0.16397628 -0.16157906 -0.21475512 -0.01717687
0.10785651 0.17772013 -0.07403132 -0.04414723 0.019357065 -0.17934601 -0.14582375 -0.04993547
-0.100050375 -0.15854196 0.030884497 -0.09277288 -0.0938038 0.061675336 -0.1137204 0.25032106
0.0057407855 0.0074682217 -0.040185586 -0.072323404 0.06213193 0.16514774 -0.21567643 0.07216912
0.027576877 0.11897998 -0.15269102 0.08207841 -0.18343663 0.09090758 -0.08543852 -0.07415975
-0.18542862 -0.087806284 0.048774008 0.023940777 -0.012706958 -0.088752285 0.1019529 -0.19535209
0.081581354 -0.07830946 0.07197904 -0.10005059 0.084129184 -0.08400087 -0.08087211 -0.034218524
0.019701533 -0.12744462 -0.09582921 0.0003007886 0.11334755 -0.11192721 -0.17575637 -0.13748494
-0.008634741 -0.00071268214 0.053648006 -0.06816253 0.010214651 -0.21543363 -0.06850365 0.10301856

net.2.bias f4 [32]
00000000: e272 acbd bb3c 243b a6ad 15be 6ce3 b8bb
00000010: 4718 25be 68d3 9e3d 084c 9ebd c2b4 5fbe
00000020: 1c65 703c b89c 31be 878d 1a3e cd33 9abb
00000030: d662 e03d abf7 f23d 3553 ccbd 0703 42be
00000040: 3f4e 00be f8f4 ed3d b617 5cbe 98dc 293e
00000050: e7f9 f53d 070d 29be 8c8d 293e 389d 663e
00000060: 6b5f 953c d4c6 d53d 45e1 d13d d970 853c
00000070: dac6 6d3e 501a ddbd a350 80bd f46e b33d
-0.0842035 0.0025060612 -0.14617023 -0.005642345 -0.16122542 0.07755166 -0.077293456 -0.21846297
0.014672544 -0.1734494 0.15093051 -0.004705882 0.109563515 0.11863645 -0.09976808 -0.18946467
-0.12529849 0.1161899 -0.2149342 0.16588056 0.12010556 -0.16508876 0.16557902 0.22520912
0.018233975 0.10438314 0.10248045 0.016289162 0.23220387 -0.10796034 -0.0626538 0.08761397

net.4.weight f4 [32, 32]
00000000: e5ff 05bd c43a 4dbe 679d ef3c 635e cb3c
00000010: a44a 89bc ba5d 7ebd d784 403d c5d5 61bd
00000020: 1d0d 923e c238 a73c 781f 46be 7339 96bc
00000030: ee6e 4ebd b092 5e3d a814 65be 5943 2dbd
00000040: 552a 93bb df66 793e d18e 593e 8700 37be
00000050: fb74 7b3e 6cef ed3d d4b6 27be 986a e0bd
00000060: 6e60 a23d b52d cc3d 3ff2 543e e913 763e
00000070: aedd 77bd 937e e4bc 7ebb 1cbe 49c7 623d
00000080: d03c 033d 68f9 9c3b a187 01be f1d9 d5bd
00000090: e83f e6ba a97c f23d 07c5 2ebe 1e84 893a
000000a0: c94f dd3c efda 51be 6781 d5bd 6c3c 0b3e
000000b0: 722c 293e 8853 23bd 9950 31be 9480 29bc
000000c0: 6de2 1fbe 781b 36be d962 de3d 79bb bb3d
000000d0: c8f9 b93d e023 653d 8116 31be 4769 18be
000000e0: 761d 49bb 793c 24be 723a 4fbe 1942 b43c
000000f0: 30e7 d3bd 2b9d babd eb82 333e 1731 da3c
00000100: 757c 3f3e 7dfc aa3c 0ba4 ad3d 7b7b 3b3e
00000110: 5749 3c3e 2132 2bbd fe5d 043d 8e59 e0bd
00000120: ea8d 94bc ff0f 95be 35f5 b2bd 518f e23d
00000130: 4902 2fbb 8043 e73d 3f12 b63d 2893 4e3e
00000140: 9aa2 913d 47d7 e4bd 6ad3 f83d d5fc 293d
00000150: 6ada 69be 4fa8 013e 2847 fd3b 75ba 423e
00000160: 36dd 3fbd 181e c2bd 1547 143e 342e 9abd
00000170: d935 363c 8f3a 573e 6108 91bd 6605 4d3e
00000180: 50f3 f8bd 3656 1dbe 0fa5 99bd 7d83 26bd
00000190: 49bc 07bd e27f ecbd 1a59 babd 66a3 503d
000001a0: 551d 743d 55b1 cd3d e208 66bd 9eca c83d
000001b0: bf8c e1bd f59e a9bd a170 d0bd 85d3 0c3e
000001c0: 23a7 e1bd 6a4a 75be ade8 dc3d 24ed 75be
000001d0: f213 4abe b46e be3d a278 cebd 5d47 023c
000001e0: 280e ddbd fad6 453c c6a0 953d b623 32bd
000001f0: 5be2 1bbe b824 5fbe fd6e 053e 4545 87bd
00000200: 1b5c 803d a1cb c03c 4f32 6dbe bae0 07be
00000210: a431 1d3e db32 6c3e eed9 0ebd 4638 e93c
00000220: ee97 e9bc 2477 073d 7c1a 54be a732 ba3d
00000230: d918 e13d dcdb 2d3d 946d 44be 4666 43be
00000240: 228e 23be 2e8f ebbd 1c58 d5bd b60b a3bd
00000250: 48c6 62be 7b7a babd 9636 c63d 011f 51be
00000260: 345a 6fbe e5cf e73d 8486 c43d 9b15 5c3e
00000270: 2ffb 6dbe 4b11 a4bd f726 68be c0fa dbbc
00000280: 4ea2 f63d 1ec8 293e 1d32 90bc 5576 f83c
00000290: 5a24 1abd e1d7 d83d 0e22 2b3d 9e59 96bc
000002a0: c548 89bd 5167 b8bd 562c 4c3e 39a3 31be
000002b0: f7c2 b93d 5bb2 f13d 5f40 c73d a5bb 40bc
000002c0: 5ecb 5c3e cc50 f13b 40a2 f3bc 920b 223e
000002d0: 2edb d3bd ba40 c5bd 3828 573e 00fb eebd
000002e0: d064 d83d 0926 433e 3173 08be 394b 5abe
000002f0: 2118 7bbd 363c 383e fc1c f33d 6338 b03d
00000300: 187a 4b3d fcdc 533c f9c9 b93d dedc f33c
00000310: a265 18be c448 1e3e ad74 8bbd 2089 973d
00000320: 0ae1 933d fa39 b93d 9108 46be 2cbb 9cbc
00000330: 40eb 0bbe d161 36be 3003 33be e890 413d
00000340: 94b1 aa3d 64c6 493d 47e8 193e 7b5c 53bc
00000350: dca8 68be 6151 05be feab 493d f305 1cbe
00000360: 0ecd 913c 4ded 13be 9954 f4bd 9e8a 7bbd
00000370: f28c 36be 5c89 b93d 5898 2abe 7d17 c8bd
00000380: 2613 8fbd e9f3 b13d 13f3 ba3d 5db3 1c3d
00000390: d8cc aeba a4d4 b13d 46c8 10be 955b e1bb
000003a0: 3de3 25bc 331a 173e 6bf1 b9bc ee32 ce3d
000003b0: 98b9 113e bd30 09bd 33dd ad3d 7480 df38
000003c0: 2429 a0bd a672 cf3c 0530 b83d 8a0b 33be
000003d0: 162d 913e cbb2 823d 6e34 efbd 73df dc3c
000003e0: d125 c33d def9 c93d 1f2e 3c3e 560d 183e
000003f0: 00d3 8cbd 624e 0b3d 94b0 8abd 09c2 e33c
-0.032714743 -0.20041949 0.02924986 0.02482528 -0.016759224 -0.062101103 0.047001686 -0.055135507
0.2852563 0.020412806 -0.19347942 -0.01833794 -0.05039876 0.05433911 -0.22371161 -0.042300556
-0.0044911304 0.24355648 0.21245886 -0.17871295 0.24556343 0.11617932 -0.16378337 -0.10957831
0.07928549 0.099696554 0.20795535 0.24031033 -0.060514145 -0.027892387 -0.15305898 0.055365834
0.032040417 0.0047904737 -0.12649395 -0.1044196 -0.0017566653 0.11840183 -0.17067347 0.0010491644
0.027015584 -0.20493673 -0.10425072 0.13597268 0.16520861 -0.039874583 -0.17315902 -0.010345597
-0.15613718 -0.17783916 0.108586974 0.09166617 0.09080845 0.055942416 -0.17293741 -0.1488391
-0.0030687726 -0.16038693 -0.20237139 0.022004174 -0.1034683 -0.09112009 0.1753041 0.026634736
0.1869982 0.020872349 0.08478554 0.18308823 0.18387352 -0.041795854 0.0323162 -0.10954581
-0.018134076 -0.29113767 -0.08738176 0.11062492 -0.0026704243 0.112921715 0.08890199 0.20173323
0.07111092 -0.111738734 0.12149699 0.041500885 -0.22837225 0.12661861 0.0077294298 0.1901644
-0.046841823 -0.09478396 0.1448024 -0.07528344 0.011121237 0.21018432 -0.07081676 0.2002159
-0.12155783 -0.15364918 -0.075021856 -0.04065274 -0.033138547 -0.11547829 -0.09099026 0.05093708
0.059598286 0.10043589 -0.056160815 0.09804271 -0.11013173 -0.08282272 -0.10177732 0.13752563
-0.11018207 -0.23954168 0.10786567 -0.24016243 -0.19734171 0.09298459 -0.10081603 0.007951585
-0.10793716 0.01207518 0.07306056 -0.043491088 -0.15223067 -0.21791351 0.1303062 -0.06605009
0.06267568 0.023534598 -0.23163722 -0.1326932 0.15350968 0.23066275 -0.034875803 0.028469216
-0.028514829 0.033072606 -0.20713228 0.090916924 0.109910674 0.042446002 -0.19182426 -0.19081983
-0.15972188 -0.11501919 -0.10417196 -0.07961218 -0.22145951 -0.091053925 0.0967838 -0.20421983
-0.23374254 0.113189496 0.09595969 0.21492617 -0.2324035 -0.08011111 -0.22671114 -0.026852965
0.12042676 0.16580245 -0.01760202 0.030329863 -0.037632324 0.10588051 0.041780524 -0.01835328
-0.06703333 -0.09004081 0.19938788 -0.17347421 0.0907039 0.11801597 0.09729075 -0.011763488
0.21561953 0.007364368 -0.029740453 0.15824726 -0.103445396 -0.09631486 0.21011436 -0.11668968
0.105661035 0.19057478 -0.13325192 -0.21317758 -0.061302308 0.17991719 0.11870763 0.08604505
0.049676985 0.012931105 0.09071726 0.029768404 -0.1488252 0.15457445 -0.068093635 0.073992014
0.07220657 0.09044261 -0.19339205 -0.01913222 -0.1366396 -0.17810751 -0.17481685 0.047257334
0.083346516 0.049261466 0.15030013 -0.012900467 -0.22720665 -0.13019325 0.04923629 -0.15236644
0.017797973 -0.14445992 -0.11930198 -0.061411493 -0.17827204 0.09059402 -0.16659677 -0.09770105
-0.06986074 0.086891 0.09128394 0.03825699 -0.0013336195 0.08683136 -0.14138898 -0.0068773725
-0.010124979 0.14756088 -0.022698125 0.10068308 0.14230955 -0.033493746 0.08489456 0.00010657395
-0.07820347 0.025323223 0.08993534 -0.1748487 0.2835471 0.06381758 -0.11679922 0.026962018
0.09528697 0.098621115 0.18376969 0.14848837 -0.068761826 0.0340103 -0.06771961 0.027802484

net.4.bias f4 [32]
00000000: 756d 6e3d b345 49be 92ed b5bc 4e72 5ebe
00000010: 439b 823d 66cd 3b3e 0159 20be 2d83 00be
00000020: 3cdd 68be 004a 6b3d 6842 7abe b2b0 66be
00000030: ae00 a5bc 3983 5f3d 5314 29be c001 0b3e
00000040: 1e20 833e e230 59be 5826 a43d a1c9 e03c
00000050: ada5 c53c b6dd 2dbe 0ef8 4a3e 63ba bfbd
00000060: 3571 943d 1b4c 0abe 13d4 c63d 2740 ab3d
00000070: 0a50 de3d eb14 123c cfcd 12bd 24be 913d
0.058209855 -0.19655494 -0.022208009 -0.21723291 0.0637727 0.18340072 -0.15658952 -0.1255004
-0.22740644 0.05744362 -0.24439394 -0.22528341 -0.020141926 0.054568503 -0.1651166 0.13574886
0.2561044 -0.21210054 0.08015126 0.027439894 0.024126852 -0.16979107 0.19821188 -0.09361722
0.07248155 -0.13505594 0.09708419 0.083618455 0.1085511 0.00891612 -0.035840806 0.071163446

net.6.weight f4 [1, 32]
00000000: 5a12 d23d bc0b 14bd 53e2 06be 7363 163d
00000010: 7f45 4cbd 1766 5ebe 5c18 4b3d bd7f 30bc
00000020: 6afc 783c 14e4 4fbc 54e2 8bbd 2c89 78ba
00000030: 8c50 18be 02fd c83d bc79 a53d 3eb8 e73c
00000040: 6d93 6b3d 2508 5b3c c41c b0bd 5eb2 1dbe
00000050: ffe6 89bd 448f 8b3e 78e8 3b3d d009 533d
00000060: 260d cdbc 8b58 123e b5a0 90bd 6b8d d73c
00000070: 7534 c13d 960d 5c3e 30f7 0fbe 9ef6 5fbb
0.102574065 -0.036144003 -0.13172273 0.036715936 -0.049870964 -0.21718632 0.049583778 -0.010772643
0.015196899 -0.012688655 -0.06830278 -0.00094808894 -0.14874476 0.098138824 0.080798596 0.028286096
0.057513643 0.013368641 -0.085992366 -0.15400073 -0.06733512 0.2725774 0.045875996 0.05152303
-0.025030684 0.14291589 -0.070619024 0.02631255 0.094338335 0.21489558 -0.14059138 -0.0034174095
